outputs/checkpoints/cgcnn_test_best.pth (torch, 125045 bytes, 45 tensors)

node_emb.weight f4 [32, 118]
00000000: 6ef6 f9bc 7fa7 0000 16e9 8dbd 44f1 083b
00000010: 0141 53be e090 06be 6f49 9ebe 6202 1abe
00000020: 24e6 fabd 588d 0000 5f93 d2bd 2b20 bc3d
00000030: 9123 9abd 9c50 b8bd ecc2 2dbe 880a 53be
00000040: 5405 efbd cf88 0080 500a bfbd e791 b43d
00000050: 900b 6b3e d02f 923e 2853 853e 84ab be3d
00000060: be4b 2cbc 4984 82bd 760b aebd 8af0 33be
00000070: a734 9b3d b359 7bbd fbd2 e5bd c003 8abd
00000080: 5be1 13be beb0 1dbe 29cd 54be 9293 92bd
00000090: d50c 94bd 0a60 1a3e 2e92 6b3e fddf 8f3e
000000a0: ce98 753e 8e9a 2f3e 7bc1 6c3c 3e64 59be
000000b0: ce73 4ebe 8fa6 19be 51e0 c2bd cb3c 7e3c
000000c0: 4176 83bd d4d4 a3bd d25b e0bd d903 f3bd
000000d0: 7455 7cbe a79c a7bd f63f afbd ad06 3f3e
000000e0: ce14 863e b2c2 803e 05d3 7b3e 6aa0 833e
000000f0: c902 213e 98ce 803e 07a1 463e e7da 6d3e
00000100: fde8 6e3e 460e 633e 76c1 693e 4b0b 623e
00000110: 46f2 5c3e f4c6 693e 34f4 543e 5c34 903e
00000120: 0696 853e 597e 163e 9db0 343d 6e56 24be
00000130: 4f89 6ebe 16fd 0ebe d65f debd 1d78 98bc
00000140: 5575 4abd 65bf 093d 9356 d1bd 58af 0000
00000150: 4189 0080 fa8b 0000 2889 0080 0791 0080
00000160: f347 043e f606 963e b90e a13e a83d 2c3e
00000170: 7f54 403e a316 d83d 7490 0080 7b8e 0000
00000180: 2d8a 0080 4899 0000 bb89 0080 ef88 0080
00000190: 798c 0080 2b91 0000 ef8b 0080 2092 0080
000001a0: c88f 0000 9289 0000 3f8b 0080 5b8d 0000
000001b0: 6691 0080 0ea3 0080 3e8b 0080 2097 0000
000001c0: c988 0080 5593 0000 3da7 0000 fa99 0080
000001d0: 418b 0000 7d8a 0080 c5fd 0b3e d988 0000
000001e0: f50e 3c3e aafd 2cbb 2b76 143e a364 7ebd
000001f0: 4a87 51bc 78ba 31be 2f92 04be 768d 0080
00000200: a395 d43d 49c6 bf3c 002b d33d 3ee0 4e3d
00000210: cbf1 8d3c 8701 30be 1697 75bc 6c98 0000
00000220: df80 e23d 0037 803d b010 b93c 6157 823c
00000230: 6c75 b93c 4085 a6bd e0fd c2bd b11b aebd
00000240: 915d 15bd cd12 06bd 5a1f 85be 7d61 dfbd
00000250: 4686 a13d a8f3 0a3d dfd7 86bd ea06 7bbe
00000260: 0c2a 133d 93e8 f1bc d8cf 4f3e baa5 243c
00000270: f686 103e c3fe c83d 9603 d03d ee7a 87bc
00000280: 7693 0bbe 2ec4 893c af15 1c3d f79a 823d
00000290: 68d2 38be 7a46 86bd 2aca 243c ea4c 093e
000002a0: f06b 0dbc 5aa4 8abe 899c b1ba 2a11 df3c
000002b0: 5059 2a3e 68d7 413e b2b7 563e 522e 1e3e
000002c0: 9e33 2a3d fccb 733d 3289 d83c b53f b43d
000002d0: f6c7 ae3d d785 e73d 03ff a13d 79d0 bd3d
000002e0: 78f0 903d 9bf8 d43d 0852 e93d 02d7 003e
000002f0: f675 053e 9acd 623e 5d6a 0e3e 2f7c c3bd
00000300: 828f 5fbd 37d8 89bd 765f 4cbc 9b8b 643b
00000310: 8aa0 f8bb 87d9 e6bd 3eef 8c3a affb 1bbd
00000320: 5252 abbd c388 0000 e789 0000 b28a 0080
00000330: d788 0000 a48f 0000 54df 8f3d 556b 0dbd
00000340: bd3b 723d 838f a23d cf96 9a3c feb6 36be
00000350: fa8e 0080 6e8b 0080 be88 0080 b894 0080
00000360: f588 0080 68a1 0080 588a 0000 678a 0080
00000370: e0ac 0080 44af 0080 9f8c 0080 838c 0080
00000380: da88 0080 518c 0080 dc88 0000 7795 0080
00000390: 2d8d 0080 8aad 0000 c79b 0000 ef8b 0080
000003a0: 9997 0080 438c 0080 01a8 0000 9f8a 0080
000003b0: 1ffa a4bb b58a 0000 1a9e 44bd b968 9a3d
000003c0: 4a4c 843e 2122 893e aee9 433e 0ef9 713c
000003d0: ba08 8b3e 0a8d 0000 a6ac 9dbd db93 263e
000003e0: 89a4 193e b8cd 033d 4096 c6bd a23f c8be
000003f0: b7a5 293e c8a0 0080 c9f4 f2bc ef1e 233e
-0.030513015 6.0086e-41 -0.06929223 0.0020895759 -0.20630266 -0.13141203 -0.309154 -0.15039971
-0.12250927 5.0705e-41 -0.10282015 0.09185823 -0.07526315 -0.0899975 -0.16968888 -0.20609486
-0.11670938 -4.9078e-41 -0.09328139 0.08816891 0.2295363 0.28552103 0.26040006 0.09310058
-0.010516105 -0.06372888 -0.0849828 -0.17572227 0.07578402 -0.06136484 -0.11221882 -0.067389965
-0.14441435 -0.15399453 -0.20781387 -0.07157053 -0.0722901 0.15075698 0.23004982 0.28100577
0.23984072 0.17148802 0.014450426 -0.21229646 -0.20161363 -0.15004943 -0.09515441 0.015517424
-0.064190395 -0.07999578 -0.10955013 -0.11865968 -0.24641973 -0.08184176 -0.085571215 0.1865489
0.26187748 0.2514854 0.24592216 0.25708324 0.15723719 0.2515762 0.19397365 0.23228036
0.23331065 0.22173414 0.22827706 0.2207462 0.21576795 0.22829801 0.20796281 0.28164947
0.2609102 0.14696635 0.044113744 -0.16048595 -0.23294567 -0.13963732 -0.10858123 -0.018611962
-0.049428303 0.033629794 -0.10221591 6.2901e-41 -4.9237e-41 5.0214e-41 -4.9202e-41 -5.2026e-41
0.12918071 0.29302186 0.31456545 0.16820395 0.18782233 0.105511926 -5.182e-41 5.1112e-41
-4.9568e-41 5.4987e-41 -4.9408e-41 -4.9123e-41 -5.0392e-41 5.2076e-41 -5.0199e-41 -5.242e-41
5.1579e-41 4.9351e-41 -4.9952e-41 5.0709e-41 -5.2159e-41 -5.8493e-41 -4.995e-41 5.4213e-41
-4.9069e-41 5.2853e-41 5.9994e-41 -5.5236e-41 4.9955e-41 -4.968e-41 0.13671024 4.9092e-41
0.1836508 -0.0026396313 0.14498203 -0.062107693 -0.012788603 -0.17356288 -0.1294639 -5.0747e-41
0.103801034 0.02340998 0.10310936 0.050506823 0.01732721 -0.17188083 -0.014989635 5.4679e-41
0.110597365 0.062604904 0.022590965 0.015910806 0.022638999 -0.08130884 -0.09521079 -0.085013755
-0.036466185 -0.032732774 -0.26000482 -0.10907266 0.07886939 0.033923775 -0.06584143 -0.24514356
0.03592877 -0.029529845 0.2029413 0.010049278 0.14113984 0.09814217 0.10156934 -0.01653811
-0.1363047 0.016817179 0.038106617 0.063772134 -0.18049014 -0.06556411 0.010057965 0.13408247
-0.008631691 -0.27078515 -0.001355068 0.027229864 0.16635633 0.18929827 0.20968512 0.15447357
0.041553132 0.059520707 0.026432607 0.08801214 0.08534233 0.11304825 0.07909968 0.09268279
0.07077116 0.1039898 0.11392599 0.12582019 0.1303328 0.22148743 0.13907762 -0.095451705
-0.05458022 -0.06730693 -0.012473932 0.003487325 -0.007587497 -0.11271959 0.0010752452 -0.03808182
-0.08365311 4.9061e-41 4.947e-41 -4.9755e-41 4.9089e-41 5.1529e-41 0.07025018 -0.034526188
0.059139002 0.07937529 0.01887074 -0.17843243 -5.129e-41 -5.0018e-41 -4.9054e-41 -5.335e-41
-4.9131e-41 -5.7902e-41 4.9628e-41 -4.965e-41 -6.2016e-41 -6.2873e-41 -5.0445e-41 -5.0406e-41
-4.9093e-41 -5.0336e-41 4.9096e-41 -5.3618e-41 -5.0644e-41 6.2254e-41 5.5882e-41 -5.0199e-41
-5.4383e-41 -5.0316e-41 6.0268e-41 -4.9728e-41 -0.0050346996 4.9759e-41 -0.04800234 0.075395055
0.25839454 0.2678385 0.1913211 0.014768852 0.27155095 5.0595e-41 -0.07698946 0.1626734
0.15004171 0.03217861 -0.09696627 -0.39111048 0.16567121 -5.7677e-41 -0.029657738 0.15929769

node_emb.bias f4 [32]
00000000: e7b8 113e efac 223e b244 22bd af09 003c
00000010: 42e7 b03c 468d 0e3d b8bc 293f df38 cf3e
00000020: 71fe 2a3d 5f1e 693d 67d9 7c3d a034 543e
00000030: a3b3 cc3c bb8d 423d 9b0d 2d3d ef92 1c3f
00000040: b179 9a3c b002 cfbe 62b9 04bd 0f37 75bc
00000050: 03f5 a0bc 6445 4d3e c4e3 253e e0bb 8c3c
00000060: d0df 1fbc 0966 9b3e d468 fb3c 8526 2a3f
00000070: 0160 dfbd 365b f83c 03ae 543e ab5b 57bb
0.14230691 0.15886281 -0.039616294 0.007814809 0.021594647 0.034802698 0.66303587 0.40473077
0.04174656 0.05691373 0.06173077 0.207232 0.024988001 0.047498446 0.042249303 0.611617
0.018856855 -0.40431738 -0.032403357 -0.01496674 -0.01964808 0.20046002 0.16200167 0.01717943
-0.009757951 0.30351284 0.030689634 0.66465026 -0.10906983 0.03031693 0.20769505 -0.0032861035

mlp.0.weight f4 [32, 32]
00000000: fc88 0000 4396 adbe 6705 a7be cc88 0080
00000010: 87d1 3cae ecee 9f3d 4acf afbe fce7 133e
00000020: b5d0 72bd ea07 f4be 0a39 ebbe c932 ecbd
00000030: e404 803d 3a42 8d9a 150a 38be 8c7f 0000
00000040: 1c4f 4a3e 42bf 81be be15 bbbd 0aee a3bd
00000050: b6d9 3e3e dce3 c73d c788 0000 eee7 7abd
00000060: 82e4 e2bb 3278 09be bf42 8dbe cd70 05bf
00000070: 0b56 413e b301 3f3c 9d8e 0abe f5ea d8bd
00000080: 038a 0000 518c a2bb e459 d7bc c188 0080
00000090: d0fa 04ab 044a 81bb f9aa f2bb bf4f 59bc
000000a0: 8cc4 0abb b203 d1bb 59e0 1cbc e74f e4ba
000000b0: 91f4 d8bb 5b3f 8196 ef7b 8ebb c788 0000
000000c0: 13be ecbb 1d3e 03bc 7eff 97bb 62d6 72bc
000000d0: ae3b 14bc 3cf6 4ab7 f888 0080 9e9c 8fba
000000e0: 0733 6dbc 938d c5bc 693d 8fbb 75b0 45bc
000000f0: a0cf e5bb b20e fbba f13c b6bb f925 15bc
00000100: 3089 0080 8a57 1c3e f978 dfbe cb88 0000
00000110: 88da 9faa 223a 4dbe 0241 9bbd 4ac7 c3be
00000120: bcab 5f3c 87aa 6d3e e375 a5be 144c 49bd
00000130: ac6e 74be f201 521a 039f 54be 9750 0080
00000140: 5da6 edbe 1cfb 83be d9e0 ebbd f795 9fbe
00000150: 601e a5be 0871 bdbd dd88 0080 f2c5 ba3a
00000160: fb67 18bf c9b4 07bf d384 04bd a24b 2cbe
00000170: ec45 00be 2674 32be cbac 57be 10ca 7dbe
00000180: 9f89 0080 c3fc c1bd e0e8 b6be bd88 0000
00000190: 5e13 ec28 a3ed 60be 8981 66be 21a4 0ebe
000001a0: f8e4 52bd 8f60 8cbd 4470 2fbe 32b7 f4bd
000001b0: 1100 17be 27dc 161a ceee 67be 7b6a 0080
000001c0: de5c 8cbe 335e 9ebe 141f 00be 0a74 debe
000001d0: 749c c0be 7f2b 70bd c088 0080 a9e5 82bc
000001e0: 87c7 12bf a2ed bdbe 2138 8cbb 0627 1fbe
000001f0: aaf1 3dbe da54 34be ee31 90be 7c0f 9fbe
00000200: f388 0000 a61d 603c 19d6 52be cd88 0080
00000210: a283 20af 67eb 5d3b e8a5 f9bd 31ce 3d3e
00000220: ab44 bc3d 7fe9 b8bd 42cb 39be 144c 893d
00000230: 5a18 ec3d 9757 829a b2bd b6bc bb88 0000
00000240: 04e6 de3c 5642 2ebe 0b0f 4f3d 5fc9 0c3d
00000250: 6d30 9d39 7adb 903d c888 0000 3140 fcbd
00000260: 721c c2bd a58d 82be 92cf 13bd 2837 15be
00000270: 005b fc3d 2b3c 0cbd be23 333d dc8b 87bd
00000280: 1189 0000 258c a2bb b459 d7bc c788 0080
00000290: 8afa 04ab df49 81bb c3aa f2bb 894f 59bc
000002a0: 74c4 0abb 7e03 d1bb 2ee0 1cbc bd4f e4ba
000002b0: 5bf4 d8bb f93e 8196 bd7b 8ebb dc88 0000
000002c0: e9bd ecbb f23d 03bc 5fff 97bb 23d6 72bc
000002d0: 863b 14bc 4ffa 4ab7 ce88 0080 569c 8fba
000002e0: cd32 6dbc 628d c5bc 4f3d 8fbb 3ab0 45bc
000002f0: 5dcf e5bb 610e fbba c83c b6bb c625 15bc
00000300: f688 0000 ee1d 1abd 759a 9abe bb88 0080
00000310: 530c c7af 0d38 503d 4694 68be 4e03 a53e
00000320: 6b45 413e f5f2 ccbd 43b4 5bbe bbfd 573d
00000330: 4e3a 503e 6006 c29a 88a3 64bd fc7f 0000
00000340: c634 313c 21bc 5dbe cd6d a83d d6a8 e4ba
00000350: c7dc 80bc 9025 d83d d688 0000 c465 f5bd
00000360: 1678 fa3c e358 48be b7dd 3cbe da12 85be
00000370: 8053 cc3d 1b48 30bd 4fb5 9bbd 6bbf 813c
00000380: ee88 0000 618e 2fbc baef 05be ba88 0080
00000390: dfe8 30ad 01a1 acbc 3543 39bd 4dd3 93bc
000003a0: cd7a a2bb 9d78 90bd 2057 8bbd cc4a 42bb
000003b0: 9c94 1abb 1c54 4b99 e7ac 04bd c888 0000
000003c0: 7e86 32bb 7142 82bd 4995 21bb 8001 04bd
000003d0: f0ac 89bd 5e95 6b3c bb88 0000 ebc1 e8bc
000003e0: 1c3f 8fbd 764f 14be 2f87 dfbc 1aa4 a8bd
000003f0: c99b 95bc 1725 72bc f61d 0dbd bada 76bd
4.9141e-41 -0.33903703 -0.3262131 -4.9073e-41 -4.293235e-11 0.078092426 -0.34337837 0.14443964
-0.05928107 -0.47662288 -0.45941955 -0.11533124 0.06250933 -5.842323e-23 -0.17972596 4.5755e-41
0.1975674 -0.2534123 -0.09135006 -0.08004387 0.18637738 0.097602576 4.9066e-41 -0.06125634
-0.006924213 -0.13424757 -0.27589986 -0.52125245 0.18880479 0.01165812 -0.13530965 -0.105916895
4.9509e-41 -0.0049605747 -0.02628798 -4.9058e-41 -4.7243893e-13 -0.003945591 -0.0074056354 -0.013263642
-0.002117428 -0.0063786143 -0.009574973 -0.0017418832 -0.0066209515 -2.0881057e-25 -0.00434827 4.9066e-41
-0.007224807 -0.008010414 -0.0046386113 -0.014821621 -0.009047432 -1.2097469e-05 -4.9135e-41 -0.001095671
-0.014477498 -0.02411536 -0.0043713343 -0.012065996 -0.007013276 -0.001915416 -0.005561464 -0.009103292
-4.9214e-41 0.15267769 -0.43646982 4.9072e-41 -2.839571e-13 -0.20041707 -0.07580759 -0.38237983
0.0136517845 0.23209582 -0.32316503 -0.04914482 -0.23870343 4.3428554e-23 -0.20763783 -2.891e-41
-0.46415988 -0.2577752 -0.11517496 -0.31169102 -0.32249737 -0.092500746 -4.9097e-41 0.0014249666
-0.5953366 -0.5301023 -0.032353234 -0.16825727 -0.12526673 -0.1742712 -0.21062009 -0.24784112
-4.9369e-41 -0.094720386 -0.35724545 4.9052e-41 2.6209663e-14 -0.21965651 -0.22510351 -0.13929798
-0.051487893 -0.068543546 -0.1713267 -0.11949004 -0.14746119 3.119711e-23 -0.2264969 -3.8198e-41
-0.27414602 -0.30931243 -0.12511855 -0.43447906 -0.37619364 -0.05863523 -4.9057e-41 -0.015978651
-0.57335705 -0.37095362 -0.004279152 -0.1554223 -0.18549219 -0.17610493 -0.28163093 -0.310665
4.9128e-41 0.013678944 -0.20589484 -4.9075e-41 -1.459868e-10 0.0033862235 -0.12189847 0.18535687
0.09192785 -0.09028911 -0.18143943 0.06703964 0.11528082 -5.390825e-23 -0.02230725 4.905e-41
0.02720929 -0.17017493 0.050551455 0.03437173 0.00029981454 0.07073112 4.9068e-41 -0.12316931
-0.09478082 -0.2549869 -0.036086626 -0.14571822 0.123220444 -0.03423707 0.04373526 -0.06618473
4.917e-41 -0.004960554 -0.026287891 -4.9066e-41 -4.7243513e-13 -0.0039455737 -0.0074056103 -0.013263592
-0.0021174224 -0.00637859 -0.009574933 -0.0017418783 -0.0066209263 -2.0880815e-25 -0.004348247 4.9096e-41
-0.0072247875 -0.008010374 -0.004638597 -0.014821562 -0.009047395 -1.2098418e-05 -4.9076e-41 -0.0010956626
-0.014477444 -0.024115268 -0.004371322 -0.0120659415 -0.007013245 -0.0019154066 -0.005561445 -0.009103244
4.9132e-41 -0.0376262 -0.30195966 -4.905e-41 -3.6206646e-10 0.050834704 -0.22712812 0.32229084
0.18874137 -0.10007278 -0.21455483 0.05273221 0.20334741 -8.024682e-23 -0.055820018 4.5912e-41
0.010815805 -0.21653797 0.08224068 -0.0017445337 -0.015730275 0.105540395 4.9087e-41 -0.11982301
0.03057484 -0.19565158 -0.18443953 -0.25990945 0.09976864 -0.043037515 -0.07602941 0.015838346
4.9121e-41 -0.010715098 -0.1307973 -4.9048e-41 -1.00561495e-11 -0.021072866 -0.04523011 -0.018045092
-0.0049584867 -0.07054255 -0.06803727 -0.0029646633 -0.0023587113 -1.051184e-23 -0.032391455 4.9068e-41
-0.0027240808 -0.06360329 -0.0024655631 -0.032227993 -0.06722438 0.014378874 4.905e-41 -0.02841278
-0.06994459 -0.14483437 -0.02728614 -0.08234425 -0.01826276 -0.014779351 -0.0344524 -0.060267188

mlp.0.bias f4 [32]
00000000: ed0a 8e3c 9757 dfbc 43f8 873e f159 1a3e
00000010: d580 d33d 5a57 dfbc ea28 5f3e 43df fcbd
00000020: 86be 1abd cc93 8d3e f2cc fdbd 6866 d93c
00000030: 93ff 043d cbbb cabd 3f25 0ebe da98 d63d
00000040: 7777 943d 3fee 4d3e 3f57 6d3e f66d babc
00000050: 67f8 9c3e 6762 e03d 6457 dfbc 1b57 dfbc
00000060: 03c5 33be 7657 dfbc 0caa debd be77 fabd
00000070: 2d0e bebc 0b9e 13bd bb90 b03c 6657 dfbc
0.017339194 -0.027263446 0.26556596 0.15073372 0.10327307 -0.027263332 0.21792951 -0.12347271
-0.037779354 0.27651823 -0.12392606 0.026538089 0.032470297 -0.098991 -0.13881396 0.10478373
0.072493486 0.20110415 0.23177813 -0.022757512 0.30658266 0.10956269 -0.02726335 -0.027263215
-0.17555623 -0.027263384 -0.108722776 -0.1222987 -0.023200119 -0.036039393 0.021553388 -0.027263355

mlp.2.weight f4 [1, 32]
00000000: be65 f5be 00e6 89ba 520a 383f 836b 063f
00000010: f047 8dbe afe5 89ba 915f babe 96f1 8abd
00000020: 37df 62be 32aa a4be 0530 c6bd 6ff1 48be
00000030: 95c7 35be d4ba e8bd e5da 1b3d 95ac 9dbe
00000040: 537d 063f 6d1f 37bf d577 2f3f 6802 3cbe
00000050: 37b9 353f 170d 5ebe bce5 89ba 52e5 89ba
00000060: 9b8d 853e dce5 89ba 866c 06bd 9c7f d83e
00000070: f6ab 023f 0c06 4cbe 3634 7fbe bce5 89ba
-0.47929186 -0.0010520816 0.7189075 0.525078 -0.27593946 -0.0010520722 -0.36401036 -0.0678436
-0.22155462 -0.321611 -0.09677128 -0.1962335 -0.17751916 -0.1136376 0.03805055 -0.30795732
0.5253498 -0.71532327 0.68542224 -0.18360293 0.7098574 -0.21684681 -0.0010520737 -0.0010520613
0.260846 -0.0010520774 -0.03281834 0.42284858 0.5104364 -0.19924182 -0.2492226 -0.0010520737

convs.0.message_mlp.0.weight f4 [32, 65]
00000000: 07f4 a9be 723b b3bd 8209 1dbe d67e 17be
00000010: ac40 80bd a684 94be 83be 5abe f3f1 303c
00000020: d5ea 02be 3b28 eabb 5532 e5bd 547c 353e
00000030: 861a 5a3d ed03 39bd 0728 883d a30b c13d
00000040: 0a7e ecbd 8e8f 753e 6232 433d b083 dcbd
00000050: 66f5 aebc e7b4 13be 1cc0 b1bd f54f cc3d
00000060: b1ab 2a3d 6745 0abd 782f d13d 5432 82bd
00000070: 1dc4 37be abb4 6a3d 7b97 25be 9d3c 67bc
00000080: 5fb0 b4be 769e 59bd 9104 343e c123 b9bd
00000090: 539c c7bb 83e3 a7bd 3b46 fabe 7aeb aa3c
000000a0: b791 ce3d 7e9c 8cbd 84e7 c53e ae93 bbbd
000000b0: 5ad4 5f3b dd4b 8ebd 4550 64bd 151f ffbd
000000c0: 7beb 153e faf2 853e e693 55bd 92ea afbc
000000d0: a399 a73e 0846 60bd 0540 aebd 4ab7 ae3e
000000e0: 1deb eb3c 8919 08be 139a 833d dce2 53be
000000f0: 9c74 c9bd 6f22 09be 98e2 52be 30e3 c23d
00000100: 69c1 50be 18d4 4c3d 31f4 8cbe 36bd 9abd
00000110: 2a55 0ebe 2703 80bd c593 cd3c 4cb8 24bd
00000120: 6694 83bc d2f1 b2bd cecb 82bd de56 03be
00000130: ed1f bbbd ce68 83bc 4a4b 00bd ec50 4a3d
00000140: 9222 2d3d 20f1 95bd 97f3 0f3e 74b8 1abd
00000150: f879 e4bd c6ad 89bd b2c1 7fbd ecee 063c
00000160: 52b1 ff3d 8f30 81bd 2eac 953d 931c a13c
00000170: c5bf 6dbe 8615 a6bc 98cd 883d 788f a0bd
00000180: aae8 77bd 81e6 09be 1456 b4bd 666c 133e
00000190: 445b 0cbe 52bc 643c edca 1d3d b78f 90be
000001a0: 09c2 4f3c 1b75 4dbd dbb3 e6bd 1545 0e3d
000001b0: 5940 e4bd 80d1 8b3c 4f13 0fbd 6181 653e
000001c0: 5613 50be 726f 93bd e5a8 1b3e 404b 873d
000001d0: e854 653d 1316 423e edc4 793d 1f4f 973e
000001e0: 003c 293e 08fe 153c 83ad 39bd ed2d dcbc
000001f0: de24 d5bd 4eff c3bd 2907 29bd 6a81 553d
00000200: 9ec9 f73c 7f0e 32be e662 a6b9 9f4c e9b9
00000210: 3d7a 023b 9c5e 5a3a 2b77 203b 97e1 0d3b
00000220: 71a5 0539 336f dbba 3758 f93a d024 2db9
00000230: 7791 f0ba 6bfb e3b9 796a 82ba ad39 b6ba
00000240: bea8 a2b9 82b7 e9ba ff52 3c3a 5a25 8cb8
00000250: 7cd2 ff3a 0648 b5b9 2ffd 4d3a 438d 8c38
00000260: 9e3b e5ba b113 8aba 1ec9 933a a32c b7ba
00000270: 6252 0ebb 558d 83b8 5c10 7b3b 823f f439
00000280: 520c e8b9 7bd4 393a 6891 aeba 5bb9 1bba
00000290: 636b 3dba e034 6ab9 6f91 863a 5a33 5eba
000002a0: 4972 abba d087 f6ba 8c60 fe39 318d 01ba
000002b0: 9d5d 7a3a 9245 a4ba 74be 4eb9 e439 9cb8
000002c0: f5b2 74ba cabd d9ba f38c a9ba f3f8 3b3a
000002d0: 41d9 e239 2fa4 363a f894 163a 8ec1 a6ba
000002e0: 73e6 3fb9 ced4 703a f8cc 90ba 4e47 63b9
000002f0: 44e8 cc3a bae8 1cbb 1c4d aaba 0062 033a
00000300: 93c5 baba a5d0 a8b8 3812 ddba d988 0000
00000310: f988 0080 7b89 0000 ce89 0080 4c89 0080
00000320: 5289 0080 2f89 0080 8589 0080 f388 0080
00000330: 7989 0000 d188 0080 dc88 0080 ca89 0000
00000340: 9b89 0000 b988 0000 a289 0000 7389 0000
00000350: c188 0000 2389 0000 7989 0080 bc89 0000
00000360: b589 0080 2d89 0080 4c89 0080 f788 0000
00000370: 5b89 0080 2e89 0000 f988 0080 a489 0000
00000380: 6d89 0000 5489 0080 c988 0000 2289 0000
00000390: b589 0080 0e89 0080 ec88 0000 3e89 0080
000003a0: 3589 0000 aa89 0000 bf89 0000 7389 0080
000003b0: dc88 0080 0689 0080 3289 0000 1d89 0080
000003c0: 9c89 0000 3f89 0080 8389 0000 ad89 0080
000003d0: bb88 0000 ae89 0000 ea88 0080 cb88 0000
000003e0: 0189 0000 f288 0000 bd88 0000 e788 0000
000003f0: c688 0000 f688 0080 0d89 0000 ad89 0000
-0.3319399 -0.08751573 -0.15335658 -0.14794478 -0.06262335 -0.29007453 -0.21361737 0.010799873
-0.12784894 -0.007145909 -0.11191241 0.17723209 0.05324795 -0.04516976 0.066482596 0.09426048
-0.115474775 0.23980543 0.04765547 -0.10767305 -0.02135725 -0.14424478 -0.0867922 0.09976188
0.041667644 -0.033757593 0.10214132 -0.063572556 -0.17945905 0.057301205 -0.16171066 -0.014113572
-0.3529081 -0.053129636 0.17579867 -0.09040023 -0.0060916333 -0.08197691 -0.48881707 0.020864237
0.10086387 -0.06865786 0.38653195 -0.09159027 0.003415367 -0.069480635 -0.055740613 -0.124571
0.1464061 0.2616194 -0.052143 -0.021474157 0.32734403 -0.054754287 -0.085083045 0.34124213
0.028798634 -0.13290991 0.06425872 -0.20692009 -0.098366946 -0.13392042 -0.20594251 0.09515989
-0.2038628 0.050006956 -0.27530053 -0.0755562 -0.13899675 -0.06250601 0.025094876 -0.04021482
-0.016061973 -0.0873753 -0.06386529 -0.12826106 -0.09136949 -0.016041186 -0.0313218 0.04939358
0.042269297 -0.073213816 0.14057766 -0.037773564 -0.11156076 -0.06722598 -0.06244058 0.008235674
0.12484993 -0.0630809 0.07308231 0.019666946 -0.23217686 -0.020273935 0.06679839 -0.078398645
-0.06052462 -0.13466837 -0.088054806 0.1439682 -0.1370669 0.013960915 0.038523603 -0.28234646
0.012680539 -0.05016051 -0.112647735 0.03473385 -0.11145086 0.01706767 -0.034930523 0.22412635
-0.20319876 -0.07198991 0.15201147 0.0660615 0.055989176 0.18953733 0.06097882 0.29552552
0.16526794 0.009154804 -0.04533149 -0.026877368 -0.104074225 -0.0957018 -0.041266594 0.052125372
0.030247506 -0.17388342 -0.00031735672 -0.0004449831 0.0019909285 0.0008330138 0.0024485092 0.0021649355
0.000127455 -0.0016741514 0.0019023482 -0.0001651228 -0.0018353899 -0.00043484135 -0.0009949944 -0.0013902687
-0.0003102477 -0.0017831179 0.0007183998 -6.6826775e-05 0.0019517685 -0.00034576672 0.00078578567 6.702032e-05
-0.0017489081 -0.0010534433 0.0011275148 -0.0013975095 -0.0021716584 -6.272892e-05 0.0038309311 0.00046586624
-0.00044259668 0.0007088852 -0.0013318481 -0.0005940401 -0.00072257797 -0.00022335676 0.0010266731 -0.000847628
-0.0013080324 -0.0018808786 0.00048518588 -0.00049419986 0.00095506926 -0.0012532941 -0.0001971664 -7.449443e-05
-0.0009334528 -0.0016612348 -0.0012935683 0.000717058 0.00043267946 0.0006967214 0.0005744244 -0.0012722479
-0.00018301028 0.0009186984 -0.0011047414 -0.0002167497 0.0015633185 -0.0023942427 -0.0012992951 0.00050118566
-0.0014249556 -8.049727e-05 -0.0016866392 4.9092e-41 -4.9137e-41 4.9319e-41 -4.9435e-41 -4.9253e-41
-4.9261e-41 -4.9212e-41 -4.9333e-41 -4.9128e-41 4.9316e-41 -4.908e-41 -4.9096e-41 4.943e-41
4.9364e-41 4.9047e-41 4.9373e-41 4.9307e-41 4.9058e-41 4.9195e-41 -4.9316e-41 4.941e-41
-4.94e-41 -4.921e-41 -4.9253e-41 4.9134e-41 -4.9274e-41 4.9211e-41 -4.9137e-41 4.9376e-41
4.9299e-41 -4.9264e-41 4.9069e-41 4.9194e-41 -4.94e-41 -4.9166e-41 4.9118e-41 -4.9233e-41
4.922e-41 4.9385e-41 4.9414e-41 -4.9307e-41 -4.9096e-41 -4.9155e-41 4.9216e-41 -4.9187e-41
4.9365e-41 -4.9235e-41 4.933e-41 -4.9389e-41 4.905e-41 4.939e-41 -4.9116e-41 4.9072e-41
4.9148e-41 4.9127e-41 4.9052e-41 4.9111e-41 4.9065e-41 -4.9132e-41 4.9165e-41 4.9389e-41

convs.0.message_mlp.0.bias f4 [32]
00000000: 1260 60be 743f 33be 1b12 ddba dc88 0000
00000010: 47ca 97bd ba11 2abe 2b31 8abe ca0f b5bd
00000020: dbca 80bb 7d48 17be aff8 27be 7d7d 16be
00000030: 48f9 19be 7985 26be 0f89 0080 01ff 28bd
00000040: 629e 93be 5f5d 133d ba9a 5fbe 9bee 23be
00000050: c115 98be 6a0b d8bd b98e 98bc 03d8 82bd
00000060: 5bf2 afbd 2e24 b2bd b348 39be e514 08be
00000070: 0a8a 99be 9c50 3fbe cef1 10be 8337 89be
-0.21911648 -0.17504674 -0.0016866358 4.9096e-41 -0.07411628 -0.16608325 -0.26990637 -0.08840902
-0.0039304323 -0.14773746 -0.16403459 -0.14696307 -0.150365 -0.16261853 -4.9167e-41 -0.041258816
-0.28831774 0.035977717 -0.21836367 -0.1600899 -0.29704097 -0.10549052 -0.018622743 -0.06388857
-0.085911475 -0.08698307 -0.18094139 -0.1328922 -0.29988128 -0.18683094 -0.14154741 -0.26800165

convs.0.gate_mlp.0.weight f4 [32, 65]
00000000: 0395 bcbe 903d d6bd c395 46be a35c 3fbe
00000010: 591e 94bd adac a7be 9320 60be 08ae 7b3c
00000020: d930 b3bd 9e21 33bc 4165 73bd e2ef 643e
00000030: 942d ac3d 7fb5 77bd 7d51 a03d bdd4 083e
00000040: b09e 0fbe c1c7 813e 09bf a13d 05ed febd
00000050: f82b 83bc 561a 22be f565 c9bd 4503 0c3e
00000060: 2e9a d53c 665b 29bd df25 f03d 0280 58bd
00000070: 7f68 83be 581e 863d e259 32be 1a5a 46bd
00000080: 5d2e c4be 926b 42bd dfbc 423e ef05 d9bd
00000090: ab22 58bb fa5f bdbd 8a5d 05bf ff2f 4b3d
000000a0: 1843 113e 6391 a2bd e572 ee3e 7481 95bd
000000b0: 7af3 f73b 4a4f 90bd 8ce8 82bd 5f1d febd
000000c0: e824 1a3e d7f8 8e3e e412 81bd 91ec f0bc
000000d0: da31 bf3e 31a0 3bbd fdf6 90bd 0733 c93e
000000e0: fab6 153d e85a dfbd 5e56 9c3d 0ac1 4bbe
000000f0: 2f0c 0abe 6294 15be 39aa 65be d002 d53d
00000100: 24a2 40be f801 5f3d 9d46 b1be ed6a b8bd
00000110: 0170 22be 7b41 9fbd 8f67 f13c aabc 49bd
00000120: aaef 59bd 5230 f7bd 26d7 a2bd 5200 33be
00000130: d1b9 f1bd a19c 69bc 5609 04bd 1761 803d
00000140: 6d69 843d 617a 9dbd 0ab3 1c3e ab75 20bd
00000150: c771 04be be16 56bd 72fc bfbd 88ea dabb
00000160: 3303 0f3e c025 94bd bd2d cb3d 91a8 eb3c
00000170: f71f 96be c754 243d 6e5f a23d be0c b2bd
00000180: e5a0 1abd f252 2abe 5228 f3bd 26e7 393e
00000190: 263f 42be 4b57 983c 99a7 2d3d 4c1e b4be
000001a0: 2a16 d13c 0409 5fbd 930e 12be 26bc 2a3d
000001b0: b386 0cbe b5e3 e43c 410d 30bd eb9b 8c3e
000001c0: f1a1 78be 0566 c1bd 94da 3e3e b444 9b3d
000001d0: b0d3 803d b105 7d3e 7b36 c13d d1c5 be3e
000001e0: a076 633e 5949 973c 4211 37bd d86d fabc
000001f0: 69ba f3bd 11ba 10be d8e2 43bd 138a 963d
00000200: ec5a 323d 3b56 3dbe 9380 00ba c475 ffb9
00000210: 228e 323b c754 9b3a f979 5c3b 8b75 453b
00000220: a3fc 3a39 8061 fdba e67d 293b a622 94b9
00000230: 2bd8 22bb 3320 26ba 34ce b9ba 7886 f5ba
00000240: 68b7 0eba 8b96 1fbb 4c01 853a 4f24 20b9
00000250: 8a48 203b 68cf 0aba 9c2e 803a 9bc3 4c38
00000260: 9180 20bb dd3c c5ba 8a56 ea3a 73fe dbba
00000270: b7d8 42bb 6759 1839 2640 a83b ed36 233a
00000280: fedd 27ba f5d6 633a 7264 e0ba 5c2c 52ba
00000290: 53dd 81ba 09ac c5b9 1ec4 b33a 318f a0ba
000002a0: dd84 e2ba 68ba 2abb b019 6e3a 4782 35ba
000002b0: e546 bd3a 6dfa f7ba 2b98 b1b9 8cda abb8
000002c0: 54f2 bfba ad08 1ebb 6a44 c8ba c2be a33a
000002d0: d639 e139 020d 9a3a 1d7f 733a 336d fbba
000002e0: 6bd5 cab9 349b aa3a 5bd2 a2ba 6221 dbb9
000002f0: 44b7 fe3a 64c7 5abb d270 eeba ba73 383a
00000300: 9b6b 01bb 35f0 57b9 2639 1bbb 0589 0000
00000310: 9489 0080 c389 0000 9d89 0080 7b89 0080
00000320: dc88 0080 2b89 0080 c189 0080 ad89 0080
00000330: d988 0000 7489 0080 9f89 0080 5f89 0000
00000340: 3089 0000 af89 0000 ad89 0000 f388 0000
00000350: ea88 0080 cb88 0000 7e89 0080 df88 0000
00000360: ca89 0080 1a89 0080 df88 0080 9689 0000
00000370: 9689 0080 bd89 0000 b689 0080 bc88 0000
00000380: bf88 0000 a589 0080 7989 0000 8889 0000
00000390: 1b89 0080 a789 0080 6b89 0000 2389 0080
000003a0: 6289 0000 cf89 0000 f788 0000 0589 0080
000003b0: d588 0080 9189 0080 cd89 0000 2589 0080
000003c0: 4589 0000 8f89 0080 8d89 0000 0989 0080
000003d0: bc89 0000 8489 0000 4a89 0080 c988 0000
000003e0: 2589 0000 6d89 0000 5c89 0000 c689 0000
000003f0: ba88 0000 c889 0080 1289 0000 c188 0000
-0.36832437 -0.10460961 -0.19393067 -0.18687682 -0.07232351 -0.3274893 -0.21887426 0.0153613165
-0.08749551 -0.010933308 -0.059422735 0.22357133 0.08407131 -0.060475823 0.07828043 0.13362403
-0.14025378 0.25347713 0.07897765 -0.12447552 -0.016012177 -0.15830359 -0.098339 0.13673122
0.026074495 -0.04134693 0.11725973 -0.052856453 -0.25665662 0.06548756 -0.174171 -0.04842577
-0.38316622 -0.04746587 0.19017361 -0.10596835 -0.0032979648 -0.09246822 -0.52095854 0.04960632
0.1418575 -0.079378866 0.46572033 -0.07300082 0.0075668665 -0.07046373 -0.06392011 -0.12407946
0.15053141 0.27924225 -0.06302431 -0.029409679 0.3734272 -0.045807067 -0.07078359 0.39296743
0.036551453 -0.10906011 0.07633661 -0.19897857 -0.1348121 -0.14607385 -0.22428216 0.10400927
-0.18811852 0.054445237 -0.34624186 -0.090047695 -0.15863039 -0.07776161 0.029468326 -0.04925219
-0.053207077 -0.12069763 -0.079511926 -0.17480591 -0.1180302 -0.014258535 -0.032235466 0.062685184
0.06465421 -0.076893575 0.15302673 -0.039174717 -0.12934028 -0.052267782 -0.09374322 -0.0066807903
0.13966064 -0.07233763 0.09920833 0.028766902 -0.29321262 0.040119912 0.07928358 -0.08693837
-0.037751097 -0.16633204 -0.11872925 0.18154582 -0.18969402 0.018596312 0.04239616 -0.35179365
0.025523264 -0.054451957 -0.14263372 0.04168334 -0.13723259 0.02794061 -0.04298139 0.27462706
-0.24280526 -0.09443287 0.18638068 0.075814635 0.06290376 0.24709202 0.094342194 0.37260297
0.2221322 0.018467592 -0.044694193 -0.030569956 -0.11900789 -0.14133479 -0.047823757 0.07350554
0.04354374 -0.18489926 -0.00049019716 -0.00048725132 0.0027245362 0.0011850827 0.0033642037 0.0030129876
0.00017832457 -0.0019331425 0.0025862395 -0.00028254575 -0.0024848084 -0.00063371955 -0.0014175833 -0.0018732091
-0.00054442 -0.0024351205 0.0010147481 -0.00015272315 0.00244573 -0.0005295188 0.0009779516 4.8819562e-05
-0.0024490694 -0.0015048046 0.0017878574 -0.0016784206 -0.0029731223 0.00014529155 0.0051346 0.0006226141
-0.0006403624 0.0008691394 -0.0017119779 -0.00080174743 -0.0009907879 -0.00037702944 0.0013715064 -0.0012249706
-0.0017282028 -0.0026051048 0.0009082807 -0.0006924015 0.0014440684 -0.0018919237 -0.00033873445 -8.194623e-05
-0.0014644363 -0.0024114058 -0.0015279178 0.0012492763 0.00042958435 0.0011753144 0.0009288656 -0.0019182324
-0.0003868745 0.0013016225 -0.001242231 -0.00041795807 0.001943328 -0.0033383006 -0.0018191582 0.00070362876
-0.0019747976 -0.00020593482 -0.0023685186 4.9153e-41 -4.9354e-41 4.942e-41 -4.9366e-41 -4.9319e-41
-4.9096e-41 -4.9207e-41 -4.9417e-41 -4.9389e-41 4.9092e-41 -4.9309e-41 -4.9369e-41 4.928e-41
4.9214e-41 4.9392e-41 4.9389e-41 4.9128e-41 -4.9116e-41 4.9072e-41 -4.9323e-41 4.91e-41
-4.943e-41 -4.9183e-41 -4.91e-41 4.9357e-41 -4.9357e-41 4.9411e-41 -4.9401e-41 4.9051e-41
4.9055e-41 -4.9378e-41 4.9316e-41 4.9337e-41 -4.9184e-41 -4.938e-41 4.9296e-41 -4.9195e-41
4.9284e-41 4.9436e-41 4.9134e-41 -4.9153e-41 -4.9086e-41 -4.935e-41 4.9434e-41 -4.9198e-41
4.9243e-41 -4.9347e-41 4.9344e-41 -4.9159e-41 4.941e-41 4.9331e-41 -4.925e-41 4.9069e-41
4.9198e-41 4.9299e-41 4.9275e-41 4.9424e-41 4.9048e-41 -4.9427e-41 4.9172e-41 4.9058e-41

convs.0.gate_mlp.0.bias f4 [32]
00000000: 12e5 10be 363d 44be 3439 1bbb 9189 0000
00000010: 6aed afbd 12b4 3bbe 9c71 9ebe 90e9 f4bd
00000020: 5034 2a3c 6581 34be 116f 55be 4a9a 8bbd
00000030: b56f 36be 16af 47be f68b 0080 52e0 6ebb
00000040: 7184 98be 135d 623d d229 36be f4de 2ebe
00000050: bcec adbe 6e99 8ebc 6150 cbbc 0aa6 8cbd
00000060: 5c5a eabd ea7b 71bd b87a a6bd b884 2abd
00000070: 669d abbe 8d7d 25be 341d 02be 6387 97be
-0.14149883 -0.19163975 -0.0023685219 4.935e-41 -0.08590205 -0.1833041 -0.30946052 -0.11958611
0.010388449 -0.17627485 -0.2084315 -0.06816538 -0.1781605 -0.19500384 -5.0209e-41 -0.0036449623
-0.29788545 0.055264544 -0.1778939 -0.17077237 -0.33969676 -0.017407145 -0.024818601 -0.06867607
-0.11443016 -0.058956064 -0.081288755 -0.041630477 -0.33518523 -0.16161175 -0.12706453 -0.2959548

convs.1.message_mlp.0.weight f4 [32, 65]
00000000: 82f4 6dbd fb6b 5ebd f73a 783b df88 0080
00000010: 3b4b 4dbe 49be 2fbe d1fd a53b f203 cdbd
00000020: 37e3 c2b9 95ac 02be d5b4 53bd a2e9 1fbe
00000030: ae5a a5bd 9a75 70be ea31 0180 296f c9bc
00000040: ed36 3cbd 2889 ae3c cb0f 0abc cd09 6cbe
00000050: f382 cbbd a44f 23be d6eb 89bd 766b 40be
00000060: b7be 39bc 72f7 95be 5a5c afbd 7012 513d
00000070: 856a ddbd 084a 79bd ed87 bcbe 12d2 61bd
00000080: b5d7 b0bd e97b 42bd 8f54 0d3b 2989 0080
00000090: c805 cfbc cb63 40be 36d1 b9be 6cfb 52bd
000000a0: 29b1 293a e049 e0bd 4648 0fbd 2837 8c3d
000000b0: 89a1 9ebc 4574 12be 3385 0180 3616 69bd
000000c0: fc20 1c3e 6fca 63bb 24bb 123d 8706 c0bd
000000d0: e08e 083e 3a55 323d 96f1 c53a 0084 4ebd
000000e0: ca13 77bb 6540 33bc 23e8 263e b564 05be
000000f0: 5bd0 f43d 584a 203e 7463 153e 48ae fc3d
00000100: 7598 3e3c 019e d2bc 3c48 14be 2341 8f3b
00000110: 86dc 9492 f282 5abe f247 37be fda9 2c3d
00000120: 1be0 d7bb 2909 bebc a87f 2d3d c970 8bbd
00000130: 1567 76be 6afb e2bc 1331 46be 4a26 0180
00000140: 6b44 e5bd 99f9 15be edc6 ec3c dff3 49bc
00000150: 749f 6abe 4dca a0bc 8a02 2bbd aaa5 00bd
00000160: ef95 90be 8bb6 e53a 0859 10bc 6cf6 acbd
00000170: 1ae5 4f3d 4789 83bd 83ed f1bd 1357 f0bd
00000180: 3c85 963d bea6 97bd d2d2 ba3c 9ab0 d63a
00000190: ee88 0000 37c0 40bd 30fe a0bc a6f2 49be
000001a0: 4836 00be fcad cbbb 516b 9bbe 0b8c 84bd
000001b0: fab0 8fbd 5c1f c3bc 83ab 86bd 3635 0180
000001c0: 3948 a8be 4b8b 29be 86de 21bb 4d0b 6e3e
000001d0: cb82 a83e 880b e23e 94c1 7b3e 30c0 f3bb
000001e0: 1c36 debd 53cb febb 9810 0a3d aed7 0fbe
000001f0: e0b6 5dbe 5778 e2bd d07e 3f3d bcde 11be
00000200: f80d 553e 8638 15bc d68e 0d3c 1cb1 deba
00000210: 5ba1 913b 5625 a207 31c1 b73b 1dae de3b
00000220: abb8 883d 8a25 843d 9860 8bba 2f67 08bc
00000230: 1a86 593c 5b9e aebc ccd7 a3bc d250 a43d
00000240: b511 0000 a6f6 01bc e212 12bd ee6b 16bb
00000250: 3b9c 03bd 2d2f 9e3d 28a8 a03a 338b ad3c
00000260: 7ebc 00bc 4b89 ea3b 7cee 7fbb 05bd 503d
00000270: b747 a33d 5377 a53d c462 8dbd 568a 6bbc
00000280: 0da5 99ba ce32 47bd e8a0 2a3d 2567 3f3b
00000290: ef15 aeba 3189 0000 714b 723b 91a2 d1bb
000002a0: 6faa bcbb 2291 df3d 8dd5 993a f679 eb3c
000002b0: 7e52 323c de99 abbc 5a46 0d3c 46c9 b03c
000002c0: 4e09 0000 26a7 713d 8f39 273c d39d d8ba
000002d0: 8036 17bd ce66 44bc 301d e73c c467 433d
000002e0: 5335 2ebb 42b3 15bc 13b2 89bb 58fc ccb9
000002f0: 31cc c2bb d83a 863d 6ce8 5f3d 6bdb 2fbd
00000300: eaf0 b13d 8d31 63ba 8266 c7bc 90d4 bbba
00000310: 78ea 78ba ab71 9238 fb88 0080 f9af c2bb
00000320: 2667 87bb 19a5 21bb 87ec a2ba 6519 66ba
00000330: 4023 85bb 002d 64bb 0bf4 91ba c0f1 a6ba
00000340: efac 2cbb 8b0e 0000 6053 5cbb 34d1 96bb
00000350: 8627 c8ba 0f26 393b 6eb7 27ba a1fd e03a
00000360: 754b f03a ab88 7aba e6bf 49bb 986e 16ba
00000370: 70cf 31bb 29c6 2fbb f8fd 25bb abaa 243b
00000380: 4a65 8bba b5f8 b0ba b11e 053b 1d1a 0d38
00000390: 238f dbb9 c00b c137 9e89 0080 26c6 9aba
000003a0: ca63 9dba cea4 5abb 2738 6cb9 1570 1eb9
000003b0: 190b 52bb 964a f3b9 c137 10b8 431d f7b9
000003c0: 55e4 1339 a313 0000 68ee fdba 8d21 60bb
000003d0: 99ec 53b9 74cb 023b 264f 913a 8e3b 863a
000003e0: 804b 8ebb d132 c2b9 0d6d 14ba b7bb 78b9
000003f0: 5290 b8ba e819 b1ba 4d31 bb39 1b15 54ba
-0.05809451 -0.054302197 0.0037876943 -4.91e-41 -0.2004823 -0.17162432 0.0050656577 -0.10010518
-0.00037171852 -0.12761147 -0.051686127 -0.15616468 -0.080739364 -0.23482361 -1.09741e-40 -0.024589138
-0.04595082 0.021305636 -0.008426617 -0.23050614 -0.09937086 -0.15948349 -0.06734435 -0.18790993
-0.011336974 -0.29290348 -0.085625365 0.051042974 -0.108113326 -0.060861617 -0.36822453 -0.05513198
-0.08634893 -0.04748145 0.0021565293 -4.9204e-41 -0.025271311 -0.18788068 -0.36292428 -0.051509306
0.00064732373 -0.109515905 -0.034981035 0.06846458 -0.019364135 -0.14302166 -1.39618e-40 -0.056905948
0.15246958 -0.003475811 0.035823002 -0.09376245 0.13335752 0.04353831 0.0015101905 -0.050418854
-0.0037701004 -0.010940646 0.1629949 -0.13026698 0.11953803 0.1565336 0.1458872 0.12337929
0.011633028 -0.025710108 -0.1448068 0.0043717786 -9.394476e-28 -0.21339014 -0.17898539 0.0421543
-0.0065879948 -0.023197727 0.04235807 -0.068086214 -0.2406276 -0.027707774 -0.19354658 -1.05571e-40
-0.1119469 -0.14645995 0.028903449 -0.01232621 -0.22912389 -0.019627715 -0.04175047 -0.03140799
-0.2823939 0.0017525716 -0.008810289 -0.08445439 0.050755598 -0.06422668 -0.1181288 -0.11735358
0.07349631 -0.074048504 0.022805605 0.0016379536 4.9121e-41 -0.04705831 -0.019652456 -0.1972147
-0.12520707 -0.006215809 -0.30355313 -0.064720236 -0.070161775 -0.023818664 -0.06575682 -1.10924e-40
-0.32867602 -0.16557042 -0.0024699285 0.23246498 0.32912287 0.44149423 0.24585563 -0.007438682
-0.10850164 -0.007775703 0.03370723 -0.14047119 -0.21651793 -0.11058109 0.046751797 -0.14245123
0.2080611 -0.0091077145 0.008640012 -0.0016990039 0.004444284 2.4396995e-34 0.005607747 0.0067956583
0.066758476 0.064524725 -0.0010633646 -0.008325382 0.013276601 -0.021315744 -0.02000036 0.08023228
6.352e-42 -0.007932341 -0.03566254 -0.0022952515 -0.032131415 0.07723842 0.0012257146 0.02118454
-0.00785744 0.00715748 -0.003905206 0.050961513 0.07972663 0.080794 -0.06903604 -0.014376244
-0.0011722163 -0.048632436 0.04165736 0.0029205766 -0.0013281683 4.9215e-41 0.0036971236 -0.0063975533
-0.005757622 0.10916354 0.0011736617 0.028744679 0.0108839255 -0.020947393 0.00862273 0.02158035
3.338e-42 0.058997296 0.010206594 -0.0016526527 -0.03691721 -0.011987401 0.02821216 0.04770638
-0.0026582077 -0.009136977 -0.0042021363 -0.00039097923 -0.0059447517 0.06554192 0.054665014 -0.042933863
0.08688529 -0.00086667464 -0.024340872 -0.0014330316 -0.0009495388 6.982995e-05 -4.914e-41 -0.0059413877
-0.0041321693 -0.0024665056 -0.001243011 -0.0008777588 -0.00406304 -0.003481686 -0.0011135353 -0.0012736842
-0.0026348194 5.217e-42 -0.0033619031 -0.0046025757 -0.0015270568 0.0028251444 -0.00063978776 0.0017165431
0.0018333035 -0.0009557108 -0.0030784546 -0.00057385257 -0.00271317 -0.0026820994 -0.002532838 0.002512614
-0.0010635045 -0.0013501855 0.0020312483 3.364134e-05 -0.0004187758 2.3012864e-05 -4.9368e-41 -0.001180832
-0.0012007889 -0.0033362391 -0.00022527632 -0.00015109808 -0.0032050072 -0.00046404143 -3.43842e-05 -0.00047133313
0.00014104073 7.044e-42 -0.0019373419 -0.0034199685 -0.00020210668 0.0019957693 0.001108621 0.0010241137
-0.0043424964 -0.00037040425 -0.0005662002 -0.00023721052 -0.0014081097 -0.0013511749 0.0003570415 -0.0008090303

convs.1.message_mlp.0.bias f4 [32]
00000000: 3ed1 183c d476 3abb 9366 c7bc 7780 1eba
00000010: 428a 0000 3bff 963d 007a 123d af64 7f3d
00000020: 0cbe d03b 317c 493c 6d93 b83c f88d b2bb
00000030: 8841 1e3c 6864 5c3d 3f8c 0000 254d be38
00000040: 8bbf 48bb ab51 13bd e90b 223d b0f7 78bc
00000050: 98d7 df3a 5b38 de3d 1732 f6bc 24a9 a33d
00000060: 1db3 68bd 9718 ca3d a902 e23c a70c 8c3d
00000070: 0c3b c33a 45f6 1e3e 59e3 e23d 6bde fdbc
0.009327231 -0.0028452175 -0.024340903 -0.00060463644 4.9598e-41 0.073729 0.03576088 0.06235188
0.0063703116 0.012297676 0.022531236 -0.005449053 0.009659179 0.053806692 5.0311e-41 9.074275e-05
-0.0030631747 -0.035966557 0.03956214 -0.015195772 0.0017077802 0.10850593 -0.030053182 0.079912454
-0.05681144 0.098679714 0.02758916 0.06838351 0.0014894917 0.15523632 0.110785194 -0.030989846

convs.1.gate_mlp.0.weight f4 [32, 65]
00000000: 9f31 dabc 4560 43bd 5dde 8b3b d188 0080
00000010: 4798 4fbe ba69 37be 9c45 823c 5af1 77bd
00000020: 32b9 523a 828f c5bd 05bb 15bd 5ff8 92bd
00000030: d5c6 93bd ca69 77be 9e24 0180 8c4e 803d
00000040: 092d 1cbd 4f1d ab3c 7e06 e83c a71d 75be
00000050: 2ab3 65bd 6de1 cdbd 7c0e 82bd 2d79 30be
00000060: e652 38bc 0059 8dbe eb7a bdbc cd36 043e
00000070: d5ba c4bd cfa1 43bc ca50 b5be 6531 edbc
00000080: 86a7 9fbd 8f8a 1abd 9ebb 443b 2489 0080
00000090: a33d a1bc 07df 32be c584 c1be 79fc 00bc
000000a0: 1faf 903a 6709 e0bd b102 89b9 6ddd b63d
000000b0: d593 69bc 7c08 0ebe b374 0180 7433 36bc
000000c0: b3b1 3f3e dabd 42bb f9b4 203d 3d0e a1bd
000000d0: 16cc 4d3e f1ae 663d 51c5 1e3b 68bd 3fbd
000000e0: 6434 13bb 4024 39bb 528d 7d3e 0eac cabd
000000f0: 12c4 1c3e 3f89 353e c176 453e 3add 0b3e
00000100: 4f6f a03d 712a b3bc cce6 14be c1dd 123b
00000110: ee9b 8a8e 75bc 0bbe 6c96 6c3c 900f e53d
00000120: 95fe 223d 59e8 9bbc d8bf da3d 6d18 063d
00000130: 712c 0bbe eabe 653c f5f9 fcbd 925c 0180
00000140: bff0 b03d 3696 bd3d 12e6 ec3c aa64 dcbd
00000150: 4f5a 27be 07e7 85bd 5b67 b8bd 22e2 cebc
00000160: a80f 26be 53a9 353b 79fa ca3d b8c5 b6bc
00000170: ede3 3c3b 08fc c9bd b1ee 83bd afe1 833d
00000180: 4272 773d 912e 23bc cc38 f3ba 826a b73a
00000190: e388 0080 42f8 2abd 0435 493c fcd7 95bd
000001a0: 3f5b 7a3c b10c bcbb 37f7 83be 72b0 ffbd
000001b0: 9415 38b9 71f6 aabc fb42 4ebd 0398 0180
000001c0: 32c6 7bbe d9ab ffbd 75bf 12bb 8640 c43d
000001d0: 9ec3 543e dfe3 ce3e d0c6 3b3e c78a f7bb
000001e0: dcc5 fbbd 13fd 42bc a63b 643d c776 f1bd
000001f0: 9a98 0cbe f485 18bd 3307 803d 6763 dabd
00000200: 5e7c 743e c12d b7bb a118 3dbd 1e4e a8bc
00000210: 8e78 fb3b 4ae3 ae1b e4d2 65be 6fed a43c
00000220: 3d6b 2f3e 1588 1e3e 25db 29bc b8e0 5e3c
00000230: 5281 ab3d 0031 70bd a403 5ebd d2cd 09bc
00000240: a726 0000 160a 07be b365 713c ce9b ebbc
00000250: 7fcd 23be 5106 723d b112 a5bd e429 753b
00000260: 9527 1dbd f137 2abd 4d26 c9bb 6570 ed3b
00000270: 8b31 f53c c0c6 b63d cf32 23be 0ae6 f3bd
00000280: 762a 28be 2434 02be 4d95 203d 188f 093c
00000290: cd6d a1b9 3589 0080 1a0e 98bd 091c 0fbe
000002a0: 3496 02bd 0e08 603e 1b41 7abb 27dc 843c
000002b0: 4b6b 7abc f21b ebbd b36b 173a 6bc1 2abb
000002c0: f133 0000 3eca 3fbd 0fe2 d7bd 9a63 3fbc
000002d0: e48a f0bd 5a0e a9bd 45bb 083d 52ff 68bc
000002e0: 8458 e5bc 7e9f 98bd 2050 65bc e282 7bbd
000002f0: 4bff 8e3c 69f1 44bd b4ee a93d 6270 c8bd
00000300: 2e06 e23d cc90 3dbd 5d29 30bd c003 ecba
00000310: 2fbb a5ba 8f99 d138 6a89 0080 5865 e3bb
00000320: 6f8a a4bb 5a65 49bb 9dea d1ba 7d56 9eba
00000330: 6a42 a1bb 4885 7fbb 39a7 9cba 500f e6ba
00000340: cf0c 5abb 8d13 0000 446e 84bb b79e bdbb
00000350: f484 0bbb 1cba 7a3b 4c34 31ba 166a 153b
00000360: fd46 183b 75c2 a7ba af20 7bbb ab62 40ba
00000370: 59f6 6abb 713b 4bbb da92 42bb 85fa 3a3b
00000380: dbd8 a3ba 6e1d c8ba fc15 203b d433 6a38
00000390: ba3b 13ba c265 4938 5789 0080 d361 caba
000003a0: 033a e4ba 4805 89bb f347 f0b9 a36e 5eb9
000003b0: 5de9 91bb 6226 a6b9 31bb 2939 45f0 1aba
000003c0: f97f 9139 ea13 0000 228f 10bb 3eca 82bb
000003d0: f8a5 8bb9 897a 1e3b 52ca b13a 35d9 cb3a
000003e0: 597a b6bb 55bc fdb9 be19 36ba 7f70 a8b9
000003f0: dcfe 02bb 4808 c0ba 4203 9839 26e7 89ba
-0.02663499 -0.04769923 0.004268451 -4.908e-41 -0.20272933 -0.17911425 0.015902333 -0.060532905
0.00080384605 -0.096465126 -0.03655531 -0.07176279 -0.072156586 -0.24161449 -1.04971e-40 0.062649816
-0.038128886 0.020887999 0.028323408 -0.23937093 -0.056079067 -0.10052762 -0.06350419 -0.17233725
-0.011250233 -0.27606964 -0.0231299 0.1291153 -0.09605948 -0.011940434 -0.354132 -0.028954217
-0.077956244 -0.037729796 0.0030019055 -4.9197e-41 -0.019682711 -0.1746789 -0.37796608 -0.007872694
0.0011038518 -0.10939293 -0.00026132682 0.08928952 -0.014256437 -0.13870424 -1.33699e-40 -0.011120666
0.1872013 -0.002971521 0.03923509 -0.07864044 0.20097384 0.05631918 0.0024226496 -0.04681149
-0.0022461647 -0.0028250366 0.2476094 -0.09896098 0.1530917 0.17728136 0.19283582 0.1365861
0.078337304 -0.021870824 -0.14541167 0.0022410008 -3.416978e-30 -0.1364611 0.01444016 0.11184609
0.03979357 -0.01903169 0.106811225 0.032738138 -0.13591172 0.014022568 -0.12352363 -1.25043e-40
0.08639669 0.09257166 0.0289183 -0.10761388 -0.16343044 -0.065382056 -0.090040885 -0.025254313
-0.1621691 0.0027719333 0.09911055 -0.022311077 0.0028822378 -0.09862524 -0.06442011 0.0643953
0.0604117 -0.009959833 -0.0018556355 0.0013993534 -4.9106e-41 -0.041740663 0.012280706 -0.073165864
0.015280544 -0.0057388176 -0.25774547 -0.12484826 -0.00017555646 -0.020869466 -0.050356846 -1.46367e-40
-0.24587324 -0.12483949 -0.002239195 0.09582619 0.20777747 0.40408227 0.1833756 -0.0075543853
-0.12293598 -0.011901158 0.055720948 -0.11790233 -0.13730088 -0.037237123 0.06251373 -0.10663491
0.23875567 -0.005590171 -0.046166066 -0.020545062 0.0076742833 2.8932767e-22 -0.2244373 0.020132748
0.17130752 0.15481599 -0.0103671895 0.013603382 0.08374275 -0.05864048 -0.05420269 -0.008410888
1.3866e-41 -0.13187441 0.01473372 -0.028760817 -0.1599636 0.059088055 -0.08060206 0.0037409002
-0.038367826 -0.041557256 -0.006138599 0.0072460645 0.02993085 0.08924627 -0.1593735 -0.11909111
-0.16422448 -0.12715203 0.039204884 0.008395933 -0.0003079012 -4.922e-41 -0.07424565 -0.13975538
-0.031881526 0.21878073 -0.0038185779 0.016218258 -0.01528437 -0.114799395 0.00057762413 -0.0026055227
1.8633e-41 -0.046823733 -0.10541164 -0.011681462 -0.11745241 -0.082546905 0.03338172 -0.014221029
-0.02799631 -0.07452296 -0.013996154 -0.061404116 0.017455718 -0.04808179 0.08297482 -0.0978706
0.11036335 -0.046280667 -0.043008197 -0.0018006489 -0.0012644286 9.994499e-05 -4.9295e-41 -0.0069395714
-0.0050213854 -0.0030730576 -0.0016015355 -0.0012080219 -0.0049212473 -0.0038989354 -0.0011951692 -0.0017552171
-0.0033271795 7.013e-42 -0.004041465 -0.0057867425 -0.0021288963 0.0038257902 -0.0006759807 0.0022798828
0.0023235672 -0.0012799042 -0.0038319041 -0.00073389214 -0.00358524 -0.0031010772 -0.002968958 0.002853067
-0.0012500541 -0.001526756 0.0024427166 5.5838216e-05 -0.0005616505 4.8016904e-05 -4.9268e-41 -0.0015440531
-0.0017412308 -0.004181538 -0.00045829974 -0.00021212785 -0.004452868 -0.00031690585 0.0001618683 -0.0005910437
0.00027751902 7.144e-42 -0.002205797 -0.0039913943 -0.00026635802 0.0024181923 0.0013564324 0.0015552404
-0.005568784 -0.0004839624 -0.0006946585 -0.00032127273 -0.0019988334 -0.0014650906 0.00028994126 -0.0010521158

convs.1.gate_mlp.0.bias f4 [32]
00000000: f1ff 953d de0f 62ba 4529 30bd 1c16 3aba
00000010: cc8b 0000 114d 7f3e e8d4 823d ebd8 123e
00000020: 32e7 f53c cd1b 4e3d aa50 eb3d 268f deba
00000030: 8674 d73c c0b7 ae3d b58b 0000 8832 d038
00000040: 0119 863c 9f58 15bd 5f26 713d f428 0bbc
00000050: 5929 7f3c 0cec 113e 3b85 83bc 005d a43d
00000060: 9c15 4cbc 596f cc3d 9054 4a3d e7f7 013e
00000070: f97b 4bbd 3aa2 b13e d8ad 2f3e d120 55bb
0.073242076 -0.000862358 -0.043008108 -0.00070986315 5.015e-41 0.24931742 0.06388265 0.1434056
0.03001747 0.05031948 0.11489995 -0.0016979917 0.02630068 0.08531141 5.0117e-41 9.927625e-05
0.016369345 -0.03646147 0.058874484 -0.008493651 0.015573823 0.14250201 -0.01605474 0.08025551
-0.012456324 0.099821754 0.04939705 0.12692223 -0.049678776 0.34694082 0.1715616 -0.003252078

convs.2.message_mlp.0.weight f4 [32, 65]
00000000: f9dc 12be b075 90bb 6749 8b3c 69a8 a53a
00000010: d088 0080 2b8e 04be 8fe0 6e3c 65b7 12be
00000020: eb72 2f3d cb64 80bc 2d12 12be 5889 a6bd
00000030: a4b2 67bd 3d09 a0bd 7f2d 0080 1808 b539
00000040: cace 2a3c 221b 9fbc 959b 1bbd e067 a3bc
00000050: bc6d 5fbc e60c ffbd 1a82 2cbd df99 9fbd
00000060: 2d52 74bd 87f8 9bbc c269 a73c 46ed 38be
00000070: 7527 883c d3cd 07be c4b0 d4bd c15e 51bc
00000080: b646 11be d3f3 4cbd dbc7 c8bb f526 18b9
00000090: c688 0080 372b 19bd 6cd3 143d 186c 04be
000000a0: 2aed 8d3c 6a2f 48bc 85c4 1d3c d8c3 72ba
000000b0: 79ed 86bd 2843 b23c 2f40 0080 51c6 9036
000000c0: 9c16 25bd e1fd 023d 004c 163c 8e9b dabb
000000d0: 5ce1 2e3d 05ec 143d 179b d43b 216e fa39
000000e0: ec39 12bd b209 1f3b efe5 16bc c563 6dbd
000000f0: ef3c 4c3c 6cbf db3b 48b8 db3c 7711 133d
00000100: 79dd a53c d300 363e a2a8 0d3d 674d 96bc
00000110: 4c60 2039 2489 0080 6b7c 913c 76b9 59bc
00000120: 3ade 18be 23cd 8cbc 4220 763d 0bed 833d
00000130: 366e f13d 968d 313c dc84 e43b 3a7c 0080
00000140: fe6e 8339 9f08 863b 684a 21bb 39b5 7a3d
00000150: c97d 30bc 3cd3 0b3d 4685 8bbd 8a00 4b3d
00000160: 9d77 4b3b 3c54 183d 117e 8abd 97e3 e6bc
00000170: e391 1d3e e023 91bb 5d35 d0bc f2dd c13d
00000180: ed2d 1f3b 2b50 b3bc ea85 1dbd 0cda 1fba
00000190: 7456 c738 6989 0080 fb2e 053d 3494 96bd
000001a0: a3de a13e 6a5e 64bb 0d91 17bc 80cc b03b
000001b0: 7ffd 00bb 99a1 babd 6b71 b63a 4bf7 0080
000001c0: 6470 41b7 16bb 8cbd 5246 193a 5232 a93d
000001d0: 7863 efbb b0d6 d83d a7d8 2f3c d985 01bc
000001e0: 9a0a 62ba 5e99 37bd d716 9dbb 9b51 3c3d
000001f0: 5f80 093d c677 7dbd 1a64 58bd be2f 4cbc
00000200: f615 91bc 4cb3 533d 2399 273e b7a7 82bd
00000210: df8b 6ebd 1ab3 4d3a 4489 0000 cf76 c0bd
00000220: ce3b b2be 174f 873d 0539 e63d 31ac 693c
00000230: 6dfa 0cbd d637 143d e27f 4e3c e2d0 9c3b
00000240: 1907 0080 c0dc 2139 4c2c f83d 4871 b53c
00000250: fff0 e3bc 30de 8c3b 46f4 32bd a326 013d
00000260: 005e ee3c 5390 423c 4f6f ddbd 5d3b 3d3d
00000270: 966e ae3d 1286 223e 92f8 1abe b555 a8bc
00000280: bf77 92bb d4b0 22be 9cb4 ff3b 906e 5dbd
00000290: 90e6 33bb dc08 7d3a 2289 0000 b21f 983b
000002a0: 632a e0bd 13a2 46bd 0959 38bd e52d 4c3d
000002b0: e67e 8a3a 1430 f3bc fd30 b8bc 11af 57bc
000002c0: 43da 0080 2705 e239 bdc7 043e e937 03bd
000002d0: cacb 023e 8fa5 dbbb 4021 963c a7ed d03c
000002e0: b0a3 cdbb ec74 373c 0416 873a aed5 b83b
000002f0: ae69 4fbd 2798 adbd dbf4 a6ba 085b 32bd
00000300: 5018 873d d4ca b5bc 08e5 31bb 1cf7 47be
00000310: 91ba c3be 740c 483b 5d42 503a e888 0000
00000320: d9c6 5bbd 2f58 b4bd bc7a 163f c488 01be
00000330: 83b5 d13b d60c b2bd 4cd7 ee3c 6ab6 2f3e
00000340: 5ed9 86be 9d36 0080 08a5 ed37 8094 16be
00000350: b528 a53c 49b5 893d f6bd 50bd 6f9f d83d
00000360: 8778 3fbd c0a1 2e3d 57f3 79be b7d0 be3d
00000370: 852d 7cbd a73c 513c c8b3 0fbe 6468 823e
00000380: 0d48 e8bd 649b d0bd 1e81 d83e 39ba c23c
00000390: 2b4c 653c 3054 23bb 3f0a 8eba 3089 0000
000003a0: b825 debc dfda 353e 3565 d9be acdc efbc
000003b0: 77b6 c7ba 53cd 453c ea83 843c 11d2 1e3d
000003c0: 415c 92bc 90ab 0000 1818 3ab9 d17e 923d
000003d0: 5aa3 8abc 0efe d8bc d4cb a23c 1f2a 0dbd
000003e0: 4053 713d 81e7 033d aedb be3c a96f e13d
000003f0: a329 45bb e319 d2bd 3116 0cbe 7796 01bd
-0.14342107 -0.0044085607 0.017002774 0.0012638691 -4.9079e-41 -0.12944858 0.014579906 -0.14327772
0.042834204 -0.015673062 -0.14264746 -0.08131665 -0.05656685 -0.07814262 -1.6321e-41 0.0003452904
0.010425279 -0.019422118 -0.03799017 -0.019946992 -0.013637003 -0.12453632 -0.042116262 -0.077930205
-0.05964868 -0.019039406 0.020436171 -0.18059263 0.016620377 -0.1326211 -0.10385278 -0.012778939
-0.1418713 -0.050037216 -0.0061273403 -0.00014510362 -4.9065e-41 -0.03739473 0.03633444 -0.1293186
0.017325003 -0.012218336 0.009629373 -0.00092607504 -0.06588263 0.021760538 -2.3025e-41 4.3146215e-06
-0.040304765 0.0319804 0.009173393 -0.0066713756 0.04269539 0.0363579 0.0064882147 0.00047765768
-0.03569977 0.0024267253 -0.009210094 -0.057956476 0.0124657 0.006706169 0.02682127 0.035905328
0.020247208 0.17773752 0.03458465 -0.018347455 0.00015294662 -4.9197e-41 0.017759522 -0.013288846
-0.14928523 -0.01718766 0.060089357 0.06441697 0.11788599 0.010836979 0.006973846 -4.4564e-41
0.00025068963 0.004090383 -0.0024611 0.061207984 -0.010772177 0.034136996 -0.06812529 0.04956106
0.0031046637 0.037189707 -0.067623265 -0.028184695 0.15387683 -0.0044293255 -0.02541607 0.09466161
0.0024288849 -0.021888813 -0.03845779 -0.000609786 9.5051626e-05 -4.9293e-41 0.032515507 -0.07352486
0.3161517 -0.0034846314 -0.009250891 0.005395472 -0.0019682345 -0.091128536 0.0013919299 -8.8712e-41
-1.1529864e-05 -0.06871621 0.00058469654 0.08261551 -0.007305559 0.105878234 0.010732806 -0.007905447
-0.00086227956 -0.044823997 -0.0047939825 0.045976263 0.03356969 -0.061881803 -0.05282984 -0.0124625545
-0.017710667 0.051684663 0.16367011 -0.06379645 -0.05823886 0.00078468176 4.9242e-41 -0.09397661
-0.34811252 0.06606882 0.11241344 0.014262245 -0.034418512 0.03618606 0.012603732 0.004785643
-2.546e-42 0.00015436392 0.12117824 0.022148743 -0.027824877 0.0042989478 -0.04368999 0.031530987
0.029097557 0.01187523 -0.10812246 0.04619919 0.08517186 0.15871456 -0.15133885 -0.02054868
-0.0044698413 -0.15887767 0.0078035127 -0.05406052 -0.0027450658 0.0009652504 4.9194e-41 0.0046424503
-0.109455846 -0.04849441 -0.045006786 0.049848456 0.0010566383 -0.029686011 -0.022484297 -0.013164298
-7.8298e-41 0.00043109918 0.12966819 -0.032035742 0.12773052 -0.0067030857 0.018326402 0.025503946
-0.0062756166 0.01119731 0.0010306244 0.005640707 -0.050637893 -0.084762864 -0.0012737768 -0.043543845
0.06596434 -0.022191443 -0.002714457 -0.19527858 -0.38228276 0.0030525 0.0007944459 4.9113e-41
-0.053656433 -0.08805882 0.5878103 -0.12649828 0.0063998117 -0.086938545 0.029155396 0.17159429
-0.26337713 -1.9592e-41 2.832945e-05 -0.14705086 0.020161012 0.067240305 -0.05096241 0.105772845
-0.046745803 0.042634726 -0.24409233 0.09317153 -0.06156685 0.012770808 -0.14033425 0.2547027
-0.113418676 -0.101858884 0.4228601 0.023770439 0.013995211 -0.0024922006 -0.0010836794 4.9214e-41
-0.027117595 0.17759274 -0.42460027 -0.02928003 -0.0015236874 0.012072879 0.016176183 0.038774554
-0.017866256 6.1545e-41 -0.00017747318 0.071530946 -0.016923595 -0.02648833 0.019872583 -0.034463998
0.058917284 0.0322032 0.02329811 0.110076256 -0.0030084632 -0.10258844 -0.1368034 -0.031637635
